checkpoint.pth (torch_old, 8232 bytes, 5 tensors)

model.l1.weight f4 [40, 1]
0	0x3ed866c6	0.4226591
1	0x3e43e6e9	0.19131054
2	0xbecc7a50	-0.39937067
3	0x3e3c7886	0.18405351
4	0x3d72c156	0.05926641
5	0xbd60a7a8	-0.05484739
6	0x3f05e30c	0.5229957
7	0xbeffdbb6	-0.49972314
8	0xbe61fb4b	-0.22068517
9	0xbf2485f6	-0.6426691
10	0xbe2192e1	-0.15778686
11	0x3ac28400	0.0014840364
12	0xbf4191cd	-0.756131
13	0xbd77f012	-0.060531683
14	0xbeccb6c4	-0.3998319
15	0xbe904896	-0.2818038
16	0xbeecdb9f	-0.46261308
17	0xbf3492c1	-0.7053643
18	0x3ed54b52	0.41659027
19	0x3f3ced0b	0.737992
20	0xbed6257f	-0.41825482
21	0xbea4bfe2	-0.32177645
22	0x3cfe698f	0.031056194
23	0x3f9291cb	1.1450742
24	0x3e4f3fed	0.2023923
25	0x3d6d16a0	0.057882905
26	0xbec581e5	-0.38575664
27	0xbec7b892	-0.39008003
28	0x3dab4320	0.083624125
29	0xbcf7a300	-0.030229092
30	0x3e9dee4b	0.30845866
31	0xbf5adcbe	-0.85493076
32	0xbe88ffda	-0.267577
33	0xbed94664	-0.42436516
34	0xbf25add9	-0.64718395
35	0x3f2c03fd	0.67193586
36	0xbeadf7f8	-0.33978248
37	0xbf38bf54	-0.72166944
38	0x3db9e6e5	0.09077243
39	0x3dfba173	0.12286653

model.l1.bias f4 [40]
0	0x3d13a1f6	0.03604313
1	0xbee4e5e5	-0.44706646
2	0x3d6ae30b	0.05734543
3	0x3d27d561	0.04097498
4	0x3e8db47e	0.27676767
5	0x3e9b9167	0.3038437
6	0x3f050016	0.51953256
7	0xbe587974	-0.2114008
8	0x3e91bc64	0.28464043
9	0xbfa6f2f4	-1.3042893
10	0x3e1d3209	0.15351118
11	0xbe7581e0	-0.23975325
12	0xbfbaf313	-1.460543
13	0xbc0512ab	-0.008122127
14	0xbe42aaa8	-0.19010413
15	0x3f20fe4f	0.62888044
16	0xbfa03638	-1.2516546
17	0xbf1a78b5	-0.60340434
18	0xbeac096c	-0.33600938
19	0xbfeaad5a	-1.8334153
20	0xbf24f8ca	-0.6444212
21	0x3ebc33e0	0.36758327
22	0x3ef19b83	0.4718896
23	0xbff6346b	-1.9234747
24	0x3f2caaaa	0.6744791
25	0xbf772a7c	-0.965492
26	0x3dbbb96a	0.09166224
27	0x3d9e7764	0.07737616
28	0xbf46aeda	-0.7761055
29	0xbe92b678	-0.28654838
30	0xbf4ec1f2	-0.8076469
31	0xbf8991a0	-1.0747566
32	0xbeb52042	-0.35376173
33	0x3e09e321	0.13465549
34	0xbfca5579	-1.5807334
35	0xbe7b5597	-0.24544369
36	0x3ea4558f	0.32096526
37	0xbf975275	-1.1822039
38	0x3f5ad4fa	0.85481226
39	0x3ef60c85	0.48056427

model.l2.weight f4 [40, 40]
0	0xbdb463f5	-0.08808128
1	0x3db37e1c	0.08764288
2	0xbe0261a7	-0.12732564
3	0xbe0978c9	-0.13424982
4	0xbe1ffe15	-0.15624268
5	0x3d5a26c4	0.053259626
6	0xbe2188f5	-0.15774901
7	0xbdee40b0	-0.11633432
8	0xbda4b079	-0.08041472
9	0x3e1faf71	0.1559427
10	0xbde2935b	-0.11063262
11	0x3c40e3a0	0.01177302
12	0x3d470f68	0.048598677
13	0xbc16c4b0	-0.009202167
14	0x3e04e519	0.12978019
15	0xbe15d0d9	-0.1463045
16	0xbd88075e	-0.0664203
17	0x3cb73648	0.02236475
18	0x3d97c938	0.07411426
19	0x3d6ee060	0.05831945
20	0xbdb2380a	-0.08702095
21	0xbe1b5b62	-0.15171579
22	0xbdbcb90a	-0.09214981
23	0xbe1c7f2d	-0.15282889
24	0xbd9e9c05	-0.07744602
25	0x3dce65b6	0.100779936
26	0xbdd0eeda	-0.10201807
27	0xbc850a28	-0.016240194
28	0xbdca96ec	-0.09892067
29	0xbcf2db40	-0.029645562
30	0xbdd6406e	-0.10461508
31	0xbdbd8a71	-0.09254921
32	0x3e1f28ef	0.15542959
33	0x3d4e84d4	0.050419644
34	0xbd07a9ea	-0.033121027
35	0x3e07ba23	0.132546
36	0xbd95b6d8	-0.07310265
37	0x3d832af8	0.0640468
38	0xbe1d96be	-0.15389535
39	0x3cc04e90	0.023474962
40	0x3dc06996	0.09395139
41	0xbdf4fa3d	-0.11961792
42	0xbe0a199e	-0.13486335
43	0xbe625b90	-0.22105241
44	0x3f41b61d	0.7566851
45	0xbe6cd46a	-0.23127905
46	0x3cdc4a32	0.026890848
47	0x3d89479d	0.06703112
48	0xbd9fc97e	-0.078021035
49	0x3cd00d9f	0.02539712
50	0xbd0c3951	-0.03423435
51	0xbd207440	-0.039173365
52	0x3e83a976	0.25715226
53	0xbe171bb7	-0.14756666
54	0x3d4d41d0	0.05011159
55	0xbefd0a9f	-0.49422166
56	0x3e856ef9	0.26061228
57	0xbd60d847	-0.05489376
58	0x3e184669	0.1487061
59	0x3d57750e	0.052601866
60	0x3e352149	0.17688479
61	0xbdcb95c9	-0.099406786
62	0x3f0a700e	0.5407723
63	0x3e665ad2	0.22495583
64	0xbebe41e9	-0.3715966
65	0xbc89fbe8	-0.016843751
66	0x3db69439	0.0891499
67	0xbdf9d70e	-0.121992216
68	0x3c5f1af0	0.013617262
69	0xbdd3259f	-0.1030991
70	0xbe382c53	-0.17985658
71	0x3e1396df	0.14413022
72	0xbc0bf1cf	-0.008541538
73	0xbe406966	-0.18790206
74	0x3d4843e2	0.048892863
75	0x3dcd78fe	0.10032843
76	0x3c585c6b	0.013205628
77	0x3e55bdfe	0.20873258
78	0x3f217491	0.6306849
79	0xbf200237	-0.6250338
80	0x3c2794bd	0.010228333
81	0x3d5c23be	0.053745024
82	0xbd3821a0	-0.044953942
83	0x3dae70c1	0.085176
84	0x3e35fece	0.17772982
85	0xbc3002f6	-0.010742893
86	0xbe936aa0	-0.28792286
87	0x3cf7065b	0.030154398
88	0x3e803e01	0.25047305
89	0xbe6aa94e	-0.22916147
90	0x3e004931	0.1252792
91	0x3d5d88f0	0.054085672
92	0xbeb5286b	-0.353824
93	0x3dac2195	0.08404843
94	0xbc825035	-0.015907386
95	0x3eb6257d	0.35575476
96	0xbdb8e8b9	-0.09028763
97	0xbdd7ee77	-0.105435304
98	0x3c0effef	0.0087280115
99	0x3e863539	0.2621248
100	0xbe6e4857	-0.23269783
101	0x3e114008	0.14184582
102	0x3d80bad1	0.062856324
103	0x3eb70701	0.3574753
104	0xbed6c086	-0.4194376
105	0x3c9cf148	0.01915802
106	0xbd26b497	-0.040699568
107	0x3d33207d	0.043732155
108	0xbdca068e	-0.098645315
109	0xbda3aeb8	-0.07992309
110	0x3e3ac710	0.18239999
111	0xbe06ff41	-0.13183309
112	0x3d5b96d5	0.05361064
113	0x3e09b47e	0.13447759
114	0xbeca7c95	-0.39548174
115	0xbc61dfa0	-0.0137862265
116	0x3e12ecf3	0.14348201
117	0xbe24274a	-0.16030613
118	0x3de34144	0.11096433
119	0xbeece0a9	-0.46265152
120	0xbd3ba206	-0.045808814
121	0x3d5d13f9	0.053974126
122	0xbe2126de	-0.15737483
123	0x3dadb6fb	0.084821664
124	0xbdc88d62	-0.09792592
125	0xbe006ed4	-0.12542278
126	0x3c55c6c3	0.013047877
127	0xbdcc1175	-0.09964267
128	0xbdb596b7	-0.08866637
129	0x3d0bfb20	0.03417504
130	0x3d97b293	0.07407107
131	0x3e1de7ff	0.1542053
132	0xbd42ebee	-0.04758828
133	0x3e03a989	0.12857641
134	0x3cfd0f8c	0.030891202
135	0x3cd2808e	0.025696065
136	0x3db7daf8	0.08977312
137	0xbe1882e0	-0.14893675
138	0xbe0abeb1	-0.13549305
139	0xbe56cde1	-0.20976974
140	0xbc707e10	-0.014678493
141	0xbd62e8ce	-0.0553978
142	0x3c2a5e0b	0.010398398
143	0xbe2dda83	-0.16977887
144	0x3de993ff	0.11405181
145	0xbe142ebf	-0.14470957
146	0x3a2f636c	0.0006690535
147	0xbda96d2d	-0.08272777
148	0xbd80c36f	-0.06287276
149	0x3d3079cc	0.043084905
150	0xbe2fbb46	-0.17161283
151	0xbd9c20b0	-0.07623422
152	0xbdc365c7	-0.09540897
153	0xbdcc7a26	-0.099842355
154	0xbd912e12	-0.07088865
155	0xbd8fca95	-0.07021061
156	0x3cce1bbc	0.02515971
157	0xbd7e0778	-0.06201884
158	0xbd804650	-0.06263411
159	0x3d85e6fa	0.06538196
160	0xbe9610fe	-0.2930984
161	0xbe5db3df	-0.21650647
162	0xbe4ff958	-0.20309961
163	0xbd948381	-0.07251645
164	0x3eadf759	0.33977774
165	0x3c890913	0.01672796
166	0xbe827350	-0.254786
167	0xbe0e6c87	-0.13908587
168	0xbe87325d	-0.26405612
169	0xbd9d43f0	-0.07678974
170	0x3c55c6a2	0.013047846
171	0xbd1d900e	-0.03846746
172	0xbe4cf5b7	-0.20015608
173	0x3bb67831	0.005568527
174	0xbd1bd830	-0.03804797
175	0xbdf127cf	-0.11775171
176	0x3d167dd5	0.036741097
177	0xbe942767	-0.28936312
178	0xbe828b8a	-0.25497085
179	0xbebd0d07	-0.36924002
180	0x3d90a026	0.07061796
181	0xbea11aeb	-0.3146585
182	0x3eb078fb	0.344673
183	0xbeb2c40c	-0.34915197
184	0x3d612623	0.05496801
185	0x3e0fce19	0.14043464
186	0xbc4176ad	-0.01180808
187	0xbd215dff	-0.039396282
188	0x3e0f84e1	0.14015533
189	0x3d6ce628	0.05783668
190	0xbda22e02	-0.079189315
191	0xbeab1174	-0.33411753
192	0xbd4afd56	-0.049558006
193	0xbe93df28	-0.28881192
194	0xbe954645	-0.29155174
195	0xbec45423	-0.3834544
196	0xbe1e1676	-0.15438256
197	0x3ccf7fbf	0.025329469
198	0x3f20a98f	0.62758726
199	0xbda2172c	-0.07914576
200	0x3da685fa	0.08131023
201	0x3d88de4b	0.06683024
202	0xbdf73623	-0.12070873
203	0xbdbb74ad	-0.091531135
204	0x3e0a1fe2	0.13488725
205	0xbe19e719	-0.15029563
206	0xbcf9714e	-0.030449536
207	0x3dbd1c44	0.09233907
208	0x3c94fba4	0.018186398
209	0x3d00e3f9	0.03146741
210	0xbdcc2970	-0.09968841
211	0xbcc50f30	-0.024055094
212	0x3e12a25f	0.14319752
213	0xbd4dc9a2	-0.05024112
214	0xbd70533b	-0.058673125
215	0x3ca3df78	0.02000402
216	0xbdacfd19	-0.08446712
217	0xbd9424bf	-0.07233571
218	0xbccc2758	-0.024921104
219	0xbcfa2b77	-0.030538304
220	0xbd2ac89b	-0.04169522
221	0xbe394cfa	-0.1809577
222	0x3d1e700f	0.038681086
223	0xba2e8fa7	-0.0006658979
224	0x3db77e35	0.08959619
225	0xbe19a610	-0.15004754
226	0xbbd318ed	-0.0064421804
227	0xbe1de015	-0.15417512
228	0xbdcfed8b	-0.101527296
229	0x3e06724d	0.1312954
230	0xbc7de018	-0.015495323
231	0x3e1b0f9a	0.1514267
232	0xbdb6c774	-0.089247614
233	0xbdd51ad2	-0.10405506
234	0x3e1c1e38	0.15245903
235	0xbcda70f5	-0.02666519
236	0x3d64def0	0.055876672
237	0x3c906b77	0.017629368
238	0x3ccf5732	0.025310133
239	0x3d3c73fe	0.046009056
240	0x3d309f81	0.043120865
241	0x3d0a4a97	0.03376254
242	0xbc846e56	-0.016165894
243	0x3e0cb7f0	0.13742042
244	0xbe9d977b	-0.30779633
245	0xbe951145	-0.29114738
246	0xbd6dcbf0	-0.058055818
247	0x3e1971a2	0.14984754
248	0xbdeed748	-0.116621554
249	0x3eb44a94	0.3521315
250	0xbe4680f4	-0.19385129
251	0x3dc00c6e	0.09377371
252	0x3eb087d1	0.3447862
253	0x3e1df620	0.1542592
254	0x3d7aa7b0	0.061195076
255	0xbe7745a3	-0.24147658

model.l2.bias f4 [40]
0	0x3df6effe	0.120574936
1	0xbebdaeac	-0.37047327
2	0xbdfe2ed4	-0.124112755
3	0x3df219c6	0.11821322
4	0x3dcbb2bc	0.099462
5	0x3d225ed3	0.039641213
6	0xbed06cb1	-0.40707925
7	0x3e19c6a3	0.1501718
8	0xbce5024e	-0.0279552
9	0xbdbfad36	-0.09359209
10	0xbd9f7d84	-0.07787612
11	0xbdd8dda9	-0.10589153
12	0x3f0ea131	0.5571471
13	0xbefe5fea	-0.49682552
14	0x3d44ebcb	0.048076432
15	0x3e1c58b1	0.15268208
16	0x3e5efd4b	0.21776311
17	0xbc9a23f8	-0.01881598
18	0xbe9cdf6e	-0.30639213
19	0xbdc1ec91	-0.094689496
20	0xbd8843db	-0.066535674
21	0xbe4bce14	-0.19902831
22	0xbc98dc9a	-0.018659879
23	0x3df15a67	0.11784821
24	0x3e2b1d34	0.16710359
25	0xbeb2604b	-0.3483909
26	0xbf29664c	-0.6617172
27	0x3d3eb371	0.046557847
28	0xbd115f8d	-0.035491515
29	0x3e9db3d9	0.30801275
30	0x3eb13186	0.34608096
31	0x3e56fb1a	0.20994225
32	0xbd91495e	-0.07094072
33	0xbdf61a2b	-0.1201671
34	0xbc4fceb3	-0.012683558
35	0xbe4d411b	-0.20044367
36	0x3e9715e8	0.295089
37	0xbf469a3a	-0.7757908
38	0x3d6fb407	0.058521297
39	0x3f1754b5	0.5911363

model.l3.weight f4 [1, 40]
0	0xbd4c1a0a	-0.04982952
1	0xbf635c25	-0.88812476
2	0x3f37ab84	0.7174609
3	0xbe296d3d	-0.16545577
4	0x3fb45a1c	1.4089999
5	0xbda2fa55	-0.07957903
6	0x3f39b108	0.72535753
7	0xbe60fe60	-0.21972036
8	0xbc465484	-0.012105111
9	0xbba4ae7e	-0.005025684
10	0xbc854d13	-0.016272103
11	0x3dff3fc1	0.12463332
12	0xbf8cd734	-1.1003175
13	0x3eb30588	0.34965158
14	0xbe8eb454	-0.27871954
15	0xbd1b56a4	-0.037924424
16	0xbf0f10e4	-0.5588515
17	0x3d20a324	0.039218083
18	0x3e6d2adc	0.23160881
19	0x3e7b5a3a	0.24546137
20	0xbd7b26fa	-0.061316468
21	0x3d98d0db	0.07461711
22	0x3d3eb829	0.046562348
23	0xbdb8b250	-0.090183854
24	0x3f292b45	0.6608165
25	0x3f7b5a18	0.9818435
26	0x3ed99283	0.42494592
27	0xbc5bb65f	-0.01341018
28	0xbdb29fd4	-0.08721891
29	0xbec6e477	-0.3884618
30	0xbf281022	-0.65649617
31	0x3faeefef	1.3666972
32	0x3e20b304	0.15693289
33	0x3c9a3eb7	0.018828733
34	0x3e01fe5d	0.12694688
35	0x3dfed657	0.12443226
36	0x3f779895	0.96717197
37	0x3f2e508b	0.6809165
38	0x3f21b3d7	0.6316504
39	0xbf86d34a	-1.053323
